project/models/flan_t5_lora_mini/adapter_model.safetensors (safetensors, 701256 bytes, 96 tensors)

base_model.model.decoder.block.0.layer.0.SelfAttention.q.lora_A.weight f4 [4, 512]
00000000: 4477 27bd 54a4 ff3c 25ea 973c 1e6d 0b3d
00000010: ad3d 0c3c 3ad6 bc3c d7ee 84bc 53ce 293d
00000020: 87be dd3c 3909 80bc c90f 823c 7fe6 0739
00000030: 79c6 2a3d ee71 d9bc 8f7c 1ebd c3b3 f439
00000040: e93e 043c f787 a53c 8bd3 203c 60c7 2abc
00000050: 9a0f a6bc d6c4 d9bc b766 a03c d4c0 343d
00000060: 1e22 a33c 96bd ae3c de0b 0d3d 185e 7b3b
00000070: 2bda 1a3d 686f 963c 0326 b53c f27d 763c
00000080: 2334 8d3c 481d c8bc f22c 12bd 646a eabc
00000090: 0a95 583c 6401 2fbd 192c f0bb aefa 2b3d
000000a0: ea9f cb39 05ad 9a3c 76f9 ee3c 6860 ea3c
000000b0: 17de fa3c ae6b 303d 151b 1f3d efea 0fbd
000000c0: 964f e13c 8fc0 693b b044 6b3c 3bed 1e3d
000000d0: 0b6d d6bb d0cd 293d 4acd 0fbd 6b53 18bd
000000e0: 1cff ab3c 55db 4f3c 9dad 21bc fc01 f8bc
000000f0: b537 d73c f7dc babc f9ef 18bd 64ed ab3c
00000100: 6a47 173d 1b27 34bb 1827 f93c e95a 133d
00000110: a059 983c 1a07 a2bc 86e6 ba3b ece2 debc
00000120: aae1 0c3d f417 b3bc 0d46 10bd 2a7e 313d
00000130: 6aba 103d 3483 8c3c 5f9f 5b39 726c 0b3d
00000140: 5acd c73c 432f 30bd 3d0e d9bc 78d7 103d
00000150: e66e 82bc 549b 2d3d 54e2 00bc e9cf b7bc
00000160: d7f8 e4bc 830d 54b8 4652 c43c 9799 febc
00000170: 2b7e e0bc 6ca1 9c3c 8cae dfbc a299 233d
00000180: 4fb0 853c d688 01bd 9bb2 d83b 320c 423c
00000190: f269 053d d13c 14bb da7d 153d 827a 17bd
000001a0: e251 223d b70a fd3c c707 c0bc ee24 de3c
000001b0: d4ef bfbc 0db7 153d a92e e03c e80f 04bd
000001c0: 08c6 1cbb bf25 c73c 4bb3 cebc 07a7 22bc
000001d0: 7489 0b3d 7879 2ebb 8014 6abc 1850 003d
000001e0: 3d59 16bd e2ca 86bc bc2a 1c3c 5537 2a3d
000001f0: e138 463c c5ab febc 5ad5 01bd 26f8 263d
00000200: 4b37 a8bc f1e1 d23c a3f1 0fbd f0bc 263c
00000210: 1fcf 6b3c 5b50 25bd 0631 0b3d 7525 d33c
00000220: 0902 b03c 15dc 0dbc 43bb 093d ad1f 753c
00000230: d4a3 0b3c 0bf0 30bd 429e 4e3c 0e6f a4bc
00000240: 82ba 1b3d fd60 2d3d 7ff2 6bbb 9133 25bc
00000250: a54a 2cbd 1f35 283d eb69 493c 6178 cdbc
00000260: fc1d fd3c fecb 8ebc e55b 37bd ceec 30bc
00000270: 91c6 16bc 492f eb3c 5185 dd3c 6242 47bc
00000280: 2aef 29bd 1a10 29bd cd9a 193d e738 ee3c
00000290: e3f1 c4bc 09c2 e53c 6c2e 12bd 3e38 58bc
000002a0: 0231 05bd 663b 2a3d 64ca e7bc cf6f 153b
000002b0: c2a4 a13a 9de5 acbc 0763 3cbc 0469 3a3c
000002c0: dc7d 20bd 3c1e 02bd 4376 bfbc d396 09bd
000002d0: 7f6e d63c 577e 23bd 0f85 fa3c 69a5 a73c
000002e0: e070 25bc b6f2 eb3a db0c c43c affc 0abd
000002f0: c740 183d 37ed 0c3c dce3 ecbb 2140 343c
00000300: 19cc 203d 6486 8c3c 8f36 ec3c 8b68 e0bc
00000310: 29a9 0abd 6b8e 03bd 1768 a53a 0367 7f3a
00000320: b7e9 1bbd 40c1 ad3c 5f14 d23b a6e3 28bb
00000330: c323 e73c 3741 a43c b9e9 33bb ae84 48bc
00000340: 11fb 293d ef28 b83b 87f2 e0bc dc99 333d
00000350: 4182 7fbb 22d0 0e3c edee c3bc 23a7 2c3d
00000360: 6cd6 f5bc ded6 25bd c3fe c13c 0699 8dbc
00000370: d72c 6f3c 390b 1dbd e13e 9f3c 8050 86bc
00000380: 3601 cb3c e58d 8d3c 83c3 e0bc 1a43 a53b
00000390: d39f 563b d2e5 fa3c 8184 8b3b fb92 20bd
000003a0: b889 193d 3dad 313d 0e77 aabc c998 22bd
000003b0: 484c e33c a9ec 2abc 7ab8 04bd 8e31 c8bb
000003c0: 1187 22bc 6ac2 b63c 8519 5fbc 5a25 2d3d
000003d0: e828 0ebd 1133 083d 5644 e6bc 1c72 dc3c
000003e0: cde5 34bd 12f2 bd3c 4579 8b3c a968 963c
000003f0: b5bd a23c 1b02 d53c 79db b23c 6f53 cdbb
-0.040885225 0.031206287 0.018544266 0.03403961 0.0085596265 0.02305137 -0.016227169 0.04145653
0.02706839 -0.015629398 0.015876668 0.0001296047 0.041693185 -0.026543584 -0.038693007 0.0004667324
0.00807164 0.020206435 0.009816061 -0.010423511 -0.020271111 -0.026583117 0.019580228 0.044129208
0.01991373 0.021330636 0.034435146 0.0038355645 0.037805717 0.01836367 0.022112852 0.015044676
0.017236775 -0.024428025 -0.035687394 -0.028615184 0.013219127 -0.042725936 -0.0073294756 0.041987114
0.00038838323 0.01888133 0.029171687 0.028610423 0.030623479 0.04307144 0.038844187 -0.03513616
0.02750377 0.0035667752 0.014359638 0.03880046 -0.0065437607 0.041456044 -0.03510789 -0.03718893
0.020995669 0.01268657 -0.009868053 -0.030274384 0.02627168 -0.022810442 -0.03733823 0.02098722
0.03693334 -0.002748913 0.03041415 0.03597537 0.018597424 -0.019778777 0.00570375 -0.027207814
0.034394898 -0.021862008 -0.035223056 0.04333321 0.03533403 0.017152406 0.00020944838 0.03403897
0.024389911 -0.043013822 -0.026496047 0.035361737 -0.015922021 0.04238446 -0.007866461 -0.022438006
-0.027950687 -5.0557323e-05 0.023965012 -0.031079097 -0.027403912 0.01911994 -0.02730491 0.039941438
0.016319422 -0.031624638 0.0066130883 0.011843728 0.03257174 -0.0022619257 0.036496975 -0.036982067
0.03962887 0.030888898 -0.023441209 0.027117219 -0.023429789 0.036551524 0.027366 -0.032241732
-0.0023921747 0.02430999 -0.025231978 -0.009927518 0.034066632 -0.0026622694 -0.014287114 0.031326383
-0.036706198 -0.016454164 0.009531673 0.041556675 0.012098522 -0.031087765 -0.03169761 0.040763997
-0.020534178 0.025742503 -0.035142552 0.010176882 0.014392643 -0.040359836 0.0339823 0.025774697
0.021485345 -0.008658429 0.033625852 0.014961165 0.008522946 -0.043197673 0.012610974 -0.020072486
0.038019665 0.042328823 -0.0036002693 -0.010083095 -0.042063374 0.041066285 0.012293319 -0.025081815
0.030898087 -0.017431255 -0.04476537 -0.010798646 -0.009202615 0.02870907 0.02704111 -0.012161823
-0.04148785 -0.04127512 0.037501145 0.029079868 -0.024041122 0.028046625 -0.035688803 -0.013197003
-0.03251744 0.041560553 -0.02829475 0.0022802239 0.0012332427 -0.021105582 -0.011498219 0.011377577
-0.03918253 -0.031767115 -0.023371821 -0.033591103 0.026175736 -0.03991541 0.030581025 0.020464616
-0.010097712 0.0018001411 0.023931911 -0.033932384 0.03717115 0.008601478 -0.0072293114 0.011001618
0.039257143 0.017153926 0.02883461 -0.0273936 -0.03385273 -0.032118242 0.0012619522 0.0009742828
-0.038064685 0.021210313 0.00641112 -0.0025770455 0.028215295 0.020050628 -0.0027452542 -0.012238665
0.0414992 0.005620114 -0.027459396 0.043847904 -0.003898755 0.008716615 -0.02391764 0.04215158
-0.03000947 -0.040488116 0.02368105 -0.017284881 0.014598093 -0.03834078 0.019439163 -0.016395807
0.02478085 0.017279575 -0.027436977 0.0050433995 0.0032749071 0.030627165 0.004257739 -0.03920267
0.037484854 0.043378104 -0.020808723 -0.03969649 0.027746335 -0.010432401 -0.032402493 -0.006109423
-0.009919898 0.0223095 -0.013616924 0.04227195 -0.03470698 0.033251826 -0.028108757 0.02690988
-0.044164468 0.023186717 0.0170256 0.018360453 0.01986585 0.02600198 0.021833168 -0.0062660496

base_model.model.decoder.block.0.layer.0.SelfAttention.q.lora_B.weight f4 [384, 4]
00000000: e2c5 f2b9 7600 9337 d921 823a f846 14ba
00000010: e043 97ba 22d6 d1ba 429e 1c3b cce1 283a
00000020: df7c ad3a 35c1 46ba 16de bab8 a266 12bb
00000030: 60cf 84ba 6da7 9dba 8d96 5e3a 72ba 04ba
00000040: 8f0f c3b9 5603 433a ad51 5fb8 490e 09ba
00000050: 16b9 6a3a 3f3b 2f39 c1e5 b1ba d3f0 dab9
00000060: bfc9 233a 91d4 74ba 01fb e138 2d67 f9ba
00000070: 28b3 acba 4a1e b6b9 dd8b ef3a c3d8 703a
00000080: 563a 2cba f09f e8ba 4c87 2c3a 9ca5 1aba
00000090: ba36 0cba 949a 9d3a 9548 99b9 5174 c639
000000a0: d1bb abb8 b31f c6ba 96f5 9839 eaaa 98ba
000000b0: b05b 8e3a ed69 a1ba 2d9b 973a 3bc3 563a
000000c0: 7ac1 09ba f0dc 93ba 8ad7 803a 73b5 4439
000000d0: 3544 4d3a 6db2 8eba 692b e039 3a98 12ba
000000e0: ca87 73ba 26e5 ceba 4011 713a d4a2 0c39
000000f0: e72b 77ba 2643 063b fabd c936 2cc0 cf39
00000100: cc5f edba 136b 073a 3cc2 c0b9 82f1 9639
00000110: cf20 9db8 190e ca3a ce42 c8b9 01cd bf38
00000120: d0d1 843a 07df 6a3a b869 88ba 6b76 12ba
00000130: 2219 daba fd50 a8b9 52a5 843a 40b9 79ba
00000140: d73b 733a 2e01 4b39 83b1 efb9 de09 79ba
00000150: a071 a6b9 8740 beba a4fd d23a 61dc e039
00000160: 8706 3d3a f579 4cba 2dc5 743a 3c91 75ba
00000170: 863a 6239 1841 f539 24ea 36ba c00b cfb9
00000180: 3fac c739 1acf d53a 4d2b 95ba f06f 61b9
00000190: 094d 8a39 fbdf d4ba 4a4c e73a a22a c7b9
000001a0: 09d7 6439 de95 3038 15f5 dcba 2b4d 28ba
000001b0: a609 7aba 08d3 773a de95 9cba 53c1 74b9
000001c0: 712d 87ba c614 5039 6761 97b9 bb47 d33a
000001d0: a6a4 423a c795 31ba 9286 7d3a bfdf 2337
000001e0: 360a 053a d9a5 d6ba cbda ed3a cae3 7db9
000001f0: 7e14 1dba cc43 943a 3a77 78ba 2926 c23a
00000200: 7f81 893a 9602 92ba 4705 5639 236f 6bba
00000210: 06a7 9139 3d19 1e3a c628 aeb9 41b5 47ba
00000220: 21e3 19b9 7bc1 593a 5a1c afba 8a18 c639
00000230: b281 f239 16f3 a837 ec38 de38 c7dc 813a
00000240: 13e5 40b9 0527 983a 87b3 44ba 8ffe 8f3a
00000250: 96d4 f73a 4670 373a dc56 8dba 99fe 1cba
00000260: 9ab0 1aba 3357 b53a 3903 fab9 2a77 d839
00000270: 6f7a f83a 0c83 3d3a 9098 10b8 109b d0ba
00000280: 27a1 9aba a07d 98b9 a843 cfb9 8f9c 03ba
00000290: c97a 24bb b22c d6ba 1cde cc3a 9377 ddb9
000002a0: dae6 52b9 d325 9aba d3cd 9539 4b5b 9939
000002b0: 9d14 1aba e236 88ba 73ef ec39 ca80 06ba
000002c0: 9af1 a6b9 9164 b43a 1353 49ba 0802 663a
000002d0: 7add fa37 998b db3a 460c 5a37 5751 27ba
000002e0: ee9c 18bb c879 0bba e7b8 963a 0b38 973a
000002f0: a786 973a b260 013a bdd8 7ab7 ed37 8fba
00000300: 3551 a639 a71c ae3a 261d 36ba 1af1 2ab9
00000310: 4b3f e7ba 7d43 fe39 1c84 db3a b993 8439
00000320: 8b09 efba 2b0b 8eba af3b 4739 f4b0 053a
00000330: c79b 26ba df5f 8fba 2bc5 1bb9 9053 2639
00000340: 3af1 ae3a b2fe b939 5023 bdb9 1151 11ba
00000350: de81 b9ba 746e cbb9 f3c2 8239 c4a7 beb8
00000360: b56d 1bba 2f4c 19ba 1006 4c3a cf18 15ba
00000370: 4b82 71ba 9d9b dfba f8f2 7e3a 9f2a adb9
00000380: 11e0 1c37 9fdb dbb9 e5ef 983a c0b0 6a3a
00000390: e689 60ba bf10 d0b9 c17a d13a f0a5 283a
000003a0: 5429 b0ba f361 50ba 55e3 c73a 6458 83ba
000003b0: da45 45ba bb8a ed38 96eb e23a 3587 8cb8
000003c0: ac2a 06b9 923c 14ba 8c51 92b7 bd3a de3a
000003d0: 7d55 8aba eb0e 303a 0f66 433a 368d 153a
000003e0: 47ea 013b 73ee fb39 07a3 ec38 ec11 6139
000003f0: 2064 01ba 3a3c c239 53b5 97ba 8fdb 433a
-0.0004630527 1.752398e-05 0.00099283 -0.0005656327 -0.0011540614 -0.0016009251 0.002389804 0.0006442338
0.0013236067 -0.00075818907 -8.910538e-05 -0.0022339006 -0.0010132603 -0.0012028046 0.0008491062 -0.0005063183
-0.0003720489 0.0007439157 -5.324341e-05 -0.0005228264 0.00089539716 0.00016711371 -0.00135725 -0.00041759628
0.0006248019 -0.0009339536 0.00010775589 -0.0019027941 -0.0013175951 -0.00034736312 0.0018275935 0.00091875735
-0.0006569972 -0.001774786 0.000658144 -0.00058993115 -0.0005348731 0.0012024217 -0.00029236512 0.00037852165
-8.188899e-05 -0.0015115648 0.00029174675 -0.0011647616 0.0010861065 -0.0012314894 0.0011566632 0.0008192544
-0.00052549655 -0.0011281054 0.0009829861 0.00018759612 0.0007830293 -0.0010886915 0.00042756952 -0.00055921415
-0.00092899485 -0.0015784844 0.0009195991 0.00013412099 -0.0009428844 0.00204868 6.012383e-06 0.00039625296
-0.0018110215 0.00051657966 -0.0003676581 0.00028790167 -7.4924545e-05 0.0015415578 -0.00038196746 9.145775e-05
0.001013333 0.0008959625 -0.0010407483 -0.00055871037 -0.001663957 -0.00032103798 0.001012007 -0.00095262006
0.0009278631 0.00019360028 -0.0004571789 -0.00095000665 -0.00031746645 -0.001451508 0.0016097319 0.00042888804
0.00072107505 -0.00078001554 0.0009337243 -0.000936765 0.00021574841 0.0004677854 -0.00069776387 -0.0003949087
0.0003808457 0.0016312331 -0.0011380702 -0.00021499372 0.00026378807 -0.0016241068 0.0017646637 -0.00037988002
0.00021823881 4.2101245e-05 -0.0016857708 -0.00064201903 -0.0009538181 0.00094537484 -0.0011946519 -0.00023341672
-0.0010313225 0.00019844164 -0.00028873535 0.00161194 0.0007425047 -0.0006774333 0.00096712366 9.767652e-06
0.0005075069 -0.0016376331 0.001814687 -0.00024212818 -0.0005992128 0.0011311709 -0.00094782154 0.0014812398
0.0010490863 -0.0011139687 0.00020410596 -0.0008981099 0.00027780997 0.00060309825 -0.00033218245 -0.00076182565
-0.00014675829 0.0008306724 -0.001335989 0.00037783786 0.00046254467 2.0140356e-05 0.000105963874 0.0009907716
-0.00018395884 0.0011608308 -0.00075035583 0.0010985899 0.001890796 0.0006997626 -0.0010783332 -0.0005988866
-0.00059009495 0.0013835191 -0.00047686117 0.00041287515 0.0018957386 0.00072293053 -3.447436e-05 -0.0015915353
-0.0011797295 -0.00029085297 -0.00039532525 -0.00050205825 -0.00250976 -0.0016340225 0.0015630159 -0.00042241495
-0.0002011316 -0.001176054 0.00028572846 0.00029250453 -0.00058777054 -0.0010392333 0.0004519183 -0.00051308854
-0.00031841994 0.0013762881 -0.00076799205 0.00087741064 2.9905455e-05 0.0016749977 1.299667e-05 -0.0006382665
-0.0023286897 -0.0005320576 0.0011499197 0.0011537088 0.0011560515 0.0004935368 -1.49516245e-05 -0.0010926701
0.0003172249 0.0013283686 -0.00069470925 -0.0001630228 -0.0017642764 0.00048496938 0.0016747746 0.00025287064
-0.0018237097 -0.0010837069 0.00019000353 0.00050999154 -0.000635561 -0.0010938606 -0.00014855403 0.00015862123
0.0013347038 0.00035475713 -0.000360752 -0.0005543391 -0.0014153083 -0.0003880147 0.0002494078 -9.091155e-05
-0.00059291284 -0.0005847839 0.0007782886 -0.00056875957 -0.00092128356 -0.0017059926 0.0009725536 -0.00033028887
9.350494e-06 -0.00041934566 0.0011668174 0.00089527294 -0.00085654703 -0.00039685328 0.0015982018 0.0006433418
-0.0013440051 -0.0007949166 0.0015250245 -0.0010020849 -0.00075253623 0.00011326881 0.0017312642 -6.7009045e-05
-0.00012795132 -0.00056547776 -1.744253e-05 0.0016954761 -0.0010554042 0.000671609 0.00074538676 0.0005704941
0.0019823478 0.0004805211 0.00011283723 0.00021464349 -0.0004935879 0.00037047436 -0.0011574425 0.00074713764

base_model.model.decoder.block.0.layer.0.SelfAttention.v.lora_A.weight f4 [4, 512]
00000000: 8b56 05bb bc6f 1f3c 736d b8bc 3a3f f1bc
00000010: 4278 2bbd 5a65 5a3b 9d0b 803c bbff 13bc
00000020: 4e31 ca3c 7438 e6bb 11f5 083d 71ef 333c
00000030: 98d2 0ebd 31e8 da3c 1986 043d 9eb7 e6bc
00000040: d1b3 103c a78e 6fbc d239 fabc aa50 11bd
00000050: 30e7 fbbc a07c 1c3d 62a0 cabb 1453 f5bb
00000060: d3c4 02bc 2bf7 6a3c 72fd eb3c 782c af3c
00000070: 56c6 233d df1d 253d d3f6 0ebd a30f 233d
00000080: 905d e03c d0e9 053c 04c8 0a3d 3750 db3c
00000090: 018a 93bc 760d 0a3d e0de 3c3c bddb a5bc
000000a0: dee8 3ebc dc1f 82bc 7790 1dbd e793 cb3c
000000b0: 8161 023d cea3 00bd cfeb 99bc 7f01 aebc
000000c0: 24a4 e1bc 9924 e9bb 0f03 a6bb dfa4 163d
000000d0: 1817 57b9 5dcb 2f3d d558 303c 85f5 523c
000000e0: 29a9 f0bc 0c23 1abd 632d 0b3d 990a 2d3c
000000f0: 3bee e03c 11ec b2bc 6604 1abd ab52 0dbc
00000100: bda8 4a3d f8d9 57bc a4bd 9dbc 0b8c d13b
00000110: d613 83ba 0cad 383d e790 343c ab7e 07bd
00000120: 4e06 fe3a f1aa 323c 9d5d a43a 8e66 a6bc
00000130: 1e92 243d 0eee 1b3d 3906 ab3c 786e 163d
00000140: 26c1 d03c 158b cc3c a96d d0bc afaa 013d
00000150: 38f1 02bc ff3b 993c 4ea8 353d f3da c4bc
00000160: 8d0d 2abd a3e6 093c 5125 1dbb 8449 1f3d
00000170: 8026 8a3c 32ec bf3c 8f62 253d fb71 6d3c
00000180: 252a 0b3d 2e89 2d3d d968 c7bc c462 1abc
00000190: dde2 18bd 66fb 273c 4c6a ff3b 026a 74bc
000001a0: df5b 1fbd eb62 17bc 3543 173d 11f4 e63c
000001b0: e06d 47bc dddb 16bd 6a7e 203d 7c62 1fbd
000001c0: e65a 06bc f8ff 3f3c 1ae5 2237 ebff 373c
000001d0: 6f1f 8a3c d49d b1bb 8baa 8f3c f7db 1c3c
000001e0: 2b91 8cbc f186 22bc d736 7a3c b922 30bb
000001f0: 6ca0 2ebd cc17 bc3b 8714 d13c 9cd7 f53c
00000200: 6890 313d 861b fdbc eee5 c9bc a345 3d3d
00000210: 87e6 d23c 24f8 72bc 4574 4dbc a387 0f3d
00000220: 37c7 143d 05ba 1fb9 5311 29bd 60bf 0e3d
00000230: 3782 18bd b933 1b3d 3958 91bc e477 67bc
00000240: 50b0 43bc 7eb5 b7bc 5c1f 6b3c e0e3 0bbd
00000250: c910 9d3c 8914 84bc 9496 0a3d 1eee 773c
00000260: 712f 18bd 1c3b 03bd 55c3 bd3c 990d 6a3c
00000270: cf85 b5bc 1b2c b9bc 9d1e c43c b11d 0abc
00000280: 2714 20bd 42b1 043c b34b 2d3c f5dd ae3c
00000290: 63a7 36bd 61ce 8c3c 5a56 9bbc e2c0 e4bc
000002a0: 7fe1 99bc 53dd ec3c eac5 3a3c f396 323d
000002b0: ef9d 4ebb eb81 1f3c e08a d03b e7db 073d
000002c0: 1066 fe3c 0819 af3a d163 efbc 4660 05bc
000002d0: 10ef 033d cccd c63c c5b0 b93c a23d ee3a
000002e0: c55e 163d fac3 c03b 2279 debc 726f 853a
000002f0: 2284 103d fc31 31bc efd2 1f3c eacf c83c
00000300: 61d4 77bc 0dec 15bc 7d1e ffbc 6771 783c
00000310: afc7 38bc 5801 afbc 2ecf 19bc 938a 263d
00000320: 3269 98bc cc7d 1fbd fdfd dd3c 9bb7 e7bc
00000330: af82 40bd 6293 2a3d 5931 fcbc a78c 2bbc
00000340: 2ac3 98bb bc4c 11bd 3472 11bc f3c9 1fbd
00000350: 1a86 0d3d c836 39bb fdae 9e3c 9fb8 dc3c
00000360: 7b0c 793c 05d8 1ebd 4bda 3a3b 7904 5fbb
00000370: 1a44 09ba d8b0 f13c 2626 923c 5889 b03b
00000380: cab9 ee3c b1fe 983a 9a17 b7bb 19c7 763c
00000390: da3e 58bb 3685 93bb 0a42 993c 44b6 d5bc
000003a0: 7db8 e63c 53b0 293d b338 eebc 58b6 833c
000003b0: 91aa 0c3d ad06 a6bb 95f3 16bd e6f7 813b
000003c0: 327b 28bc 79f0 1dbd 2bda 30bc a69e ce3c
000003d0: 41d6 013d ab8a 983c 9071 643c b391 463d
000003e0: e8bd 5ebc 9e5d c4bc 1fc2 c7bc c5d4 b03c
000003f0: 79b7 e93c 8ca6 7e3c 094c ff3c b382 91bb
-0.0020345773 0.009731229 -0.022513127 -0.029449094 -0.041862734 0.003332457 0.015630538 -0.009033139
0.024681713 -0.0070257727 0.03343684 0.01098238 -0.034868807 0.026722046 0.032354448 -0.028163727
0.008831934 -0.014621413 -0.030545149 -0.035477318 -0.030749887 0.03820479 -0.00618367 -0.0074867103
-0.007981497 0.014341156 0.028807376 0.021383509 0.03998407 0.04031169 -0.03490336 0.039809834
0.027388364 0.008173421 0.033882156 0.026771648 -0.018010141 0.033704244 0.011527747 -0.020246381
-0.0116522 -0.015884332 -0.03846785 0.024850799 0.03183127 -0.031406216 -0.0187892 -0.021240948
-0.027544089 -0.0071149585 -0.0050662826 0.036778327 -0.00020512601 0.04291855 0.010763367 0.012875919
-0.029377537 -0.03763108 0.03397883 0.010561609 0.027457347 -0.02184108 -0.03760185 -0.008625667
0.049477328 -0.013174526 -0.019255467 0.0063948683 -0.0010000418 0.045086905 0.011020876 -0.033079784
0.0019380541 0.010905013 0.0012540106 -0.020312574 0.04017841 0.038068824 0.02087699 0.036726445
0.025482725 0.024968663 -0.025442915 0.031656917 -0.007992081 0.018705366 0.04434996 -0.024030184
-0.04151683 0.0084168045 -0.002397854 0.03888847 0.016864061 0.023428056 0.040377196 0.014492507
0.03397574 0.042367153 -0.024341987 -0.009422962 -0.03732573 0.010252809 0.007794654 -0.014917852
-0.038905974 -0.0092398925 0.036929328 0.028192552 -0.012172192 -0.03683077 0.039183058 -0.03891228
-0.008200383 0.011718743 9.709294e-06 0.011230449 0.016860692 -0.005420426 0.017537376 0.009573928
-0.017159065 -0.009919868 0.015271864 -0.0026876165 -0.04263346 0.0057401415 0.025522484 0.030010037
0.043350607 -0.030896913 -0.024645772 0.04620899 0.02574469 -0.014829669 -0.012539928 0.035041463
0.0363228 -0.0001523272 -0.041276287 0.03485048 -0.037233558 0.037891123 -0.017742263 -0.014127705
-0.011943892 -0.02242541 0.014350738 -0.034152865 0.019173043 -0.016123073 0.03383501 0.015132455
-0.03715462 -0.032038793 0.02316443 0.0142854685 -0.022158531 -0.022604039 0.023940379 -0.008429931
-0.03908172 0.008098902 0.01057713 0.021346072 -0.044593226 0.017188253 -0.018962074 -0.027924005
-0.018784283 0.02891413 0.011399725 0.043600988 -0.0031527241 0.009735565 0.0063642114 0.0331687
0.031054527 0.00133589 -0.0292224 -0.008140629 0.03221041 0.024268053 0.022667298 0.0018176327
0.036711473 0.005882737 -0.02715737 0.0010180308 0.03528226 -0.01081514 0.00975488 0.024513204
-0.015126319 -0.009150517 -0.031142468 0.015163756 -0.011278077 -0.021362945 -0.009387774 0.0406595
-0.018604849 -0.03893833 0.02709865 -0.028285792 -0.04699963 0.04164446 -0.03078525 -0.010470546
-0.0046619372 -0.03547357 -0.008877326 -0.039010953 0.034551717 -0.0028261412 0.01937055 0.026943503
0.0152007295 -0.03878023 0.002851146 -0.0034029766 -0.0005236283 0.029503271 0.017840456 0.0053874664
0.029141326 0.0011672584 -0.0055875303 0.015062117 -0.0032996447 -0.004501964 0.018708248 -0.026087888
0.028164143 0.04142792 -0.02907977 0.01607816 0.034342352 -0.005066714 -0.03685339 0.0039663194
-0.010283278 -0.03855941 -0.010794203 0.025222134 0.03169847 0.01862081 0.013943091 0.048478793
-0.013595082 -0.023970421 -0.024384556 0.021585831 0.02852987 0.015542638 0.031164186 -0.0044406294

base_model.model.decoder.block.0.layer.0.SelfAttention.v.lora_B.weight f4 [384, 4]
00000000: 762b ed3a 30aa 62ba 5f8d 0b3b f3bf f839
00000010: ff1b 44bb 03a0 fc3a 7266 efba aafe 35bb
00000020: e87e 9dbb 93f2 563b 5c3c 80bb 7e0c 87bb
00000030: 98d3 96bb cd03 383b 9cf4 efba 2d36 55bb
00000040: 0b8b 1abb 83fb 693a 21e3 c6ba 2882 59b8
00000050: 10d3 be3a e046 a1ba f620 433a 7bf9 d53a
00000060: bdc4 02b9 ac33 90b6 99bb 2b38 2be7 8bba
00000070: 2d24 843b 32cb 37bb 1e17 593b 3773 603b
00000080: 3b76 8a3b 116e 67bb 8ee0 773b eb8b 2e3b
00000090: 7ddf cb39 0756 7038 6345 65ba 5d8e 44ba
000000a0: 9c7d a63b 4b9b 53bb 9a2f 643b ea3c 923b
000000b0: 0ce6 953b 9097 4dbb 9a03 903b d4bd 903b
000000c0: c280 9abb e3cb 813b cf5d 5dbb cde2 50bb
000000d0: c5d6 16bb 8e26 e23a f71a e4ba aaac b8ba
000000e0: cf32 743b bef5 02bb b0b2 483b 0369 5c3b
000000f0: 9d00 323b bbca d0ba c079 1a3b 9cb4 c33a
00000100: a5ea 82bb e882 253b 5461 03bb 00aa 37bb
00000110: 7f57 c6ba 7617 a53a bf9e 26ba 5884 c43a
00000120: e350 e6b9 fe2a 603a 4eb4 353a 751b 3b3a
00000130: e077 853b 7f81 53bb eb09 663b ccc8 353b
00000140: d2fc a73a 9c3c 71ba 9c7f 0d3a e83a fd3a
00000150: eeed 7c3b f18a 29bb dc2c 4b3b 4c4d 5d3b
00000160: c276 21b9 717f 80ba dd0a 17ba a5e8 2b39
00000170: f3bf 5cbb 281a d43a e0b5 d0ba 091f 1bbb
00000180: f71d 16b6 aa6d 1339 1b06 3b38 b474 adba
00000190: bdbb 88ba a453 953a c83e 8238 392e a1ba
000001a0: 530c 2b3b 05f9 93ba dc72 bc3a cc86 1f3b
000001b0: 4bdd 84bb 08b0 403b 0f36 30bb 2d5b 1cbb
000001c0: bfb7 4a3b 95be e5ba 7c13 d93a 92f8 023b
000001d0: 7a4e f6ba c9ab e13a 3d47 56b9 3eab 30ba
000001e0: 9cf7 843b ed2b 1bbb 5798 693b dc93 413b
000001f0: a792 94bb d748 003b 5fe8 36bb 2acf 86bb
00000200: d3aa 003b 64d4 6bba c896 923a 23e4 173b
00000210: e82f 9b3b 1428 49bb 3cd0 373b f856 903b
00000220: 2b36 e9ba dec6 983a 1450 2cba e032 d9ba
00000230: 322f 93bb a308 723b 56a8 73bb 6c87 6abb
00000240: 4b13 1dbb 7089 1d3a f928 70ba 363a d1ba
00000250: c2a4 07bb baa9 ed3a 4516 c8ba 04ad 5bb9
00000260: 05a5 993a 8d36 21ba aa05 4b3a f630 813a
00000270: 26d3 173b 1831 ebba 3e4f 973a efab a8b9
00000280: f018 743b 1b88 34bb 4cd6 663b 3dd4 e33a
00000290: 818d 9bbb 700b 863b a457 84bb 1183 3cbb
000002a0: dfe7 29bb a904 f43a 32e7 e8ba 22d2 91ba
000002b0: 05d0 743b e114 29bb a759 643b ae0c 013b
000002c0: 5a7e a23b a00e 6cbb 943f 943b 86c7 7f3b
000002d0: 6034 283b 1b03 5dba 48df f03a 9485 b33a
000002e0: a022 80bb 32d9 553b 6cd0 3fbb 8f8b 1aba
000002f0: bd63 8f3b 90a0 34bb c8c0 6e3b 3614 4f3b
00000300: d1aa 173b c19a 5cba 7d9a 383b b642 453b
00000310: d874 c03a 1c15 e0b9 952c ed3a 08c8 713a
00000320: 9e60 9abb 817f 553b eae3 6dbb 1c9d 93bb
00000330: e3dd 863b 908b 1bbb 82d9 253b f5ec 753b
00000340: 8a2c 913b d752 6ebb 331c 5e3b c30f 113b
00000350: 74e8 59ba 94e4 d137 fd07 49ba 03fd 23bb
00000360: 706c 11ba 2b60 503a 992e 1ab9 a606 0f3b
00000370: 17f0 393b c1e8 1fbb e2f1 0f3b 91c5 593b
00000380: 1199 063b 4b99 6cba 1639 dd3a 4dd9 773a
00000390: e2d8 49bb c36c 213b 51c5 9bba fa17 feba
000003a0: c52d 853b 3b4f 20bb d53d 523b e930 833b
000003b0: aa44 193b fae9 263a f5bd 323a 1956 3a3a
000003c0: 3e8f 88bb 81aa 063b eaad 61bb 5245 eeba
000003d0: edce ea3a 41ad 9eb9 fb1f 403a 7504 3d3b
000003e0: 230c fd3a 037e 83ba ff8a 8a39 b6dc be3a
000003f0: 9f1a 7b3b e16b f0ba 5c1d 0f3b 24bc 5e3b
0.0018094617 -0.0008646576 0.002129398 0.0004744526 -0.0029923914 0.0019273761 -0.0018264784 -0.00277702
-0.004806388 0.0032798394 -0.0039134454 -0.004121362 -0.0046028607 0.0028078437 -0.0018307152 -0.0032533512
-0.0023581411 0.0008925723 -0.0015173891 -5.185805e-05 0.0014558751 -0.0012304448 0.0007443571 0.0016324961
-0.00012471057 -4.29755e-06 4.094429e-05 -0.0010673752 0.004032633 -0.0028044698 0.0033125351 0.003424836
0.00422552 -0.0035313407 0.0037823054 0.002663369 0.0003888569 5.730058e-05 -0.0008745996 -0.00074980204
0.005080892 -0.0032288607 0.0034818412 0.004462828 0.004574543 -0.0031370856 0.0043949606 0.0044171605
-0.004715056 0.003961073 -0.0033777838 -0.0031873465 -0.0023016196 0.0017253922 -0.0017403056 -0.0014089544
0.003726173 -0.00199829 0.0030624084 0.0033631928 0.002716101 -0.0015929559 0.0023571104 0.0014931145
-0.003995257 0.0025255028 -0.0020047026 -0.0028024912 -0.0015132277 0.0012595493 -0.00063560525 0.0014993055
-0.00043929284 0.0008551328 0.00069314695 0.00071375753 0.004073128 -0.003227323 0.0035101126 0.0027738092
0.0012816435 -0.0009202452 0.00053977384 0.0019319924 0.0038593966 -0.002587017 0.003100208 0.0033767996
-0.00015398397 -0.0009803605 -0.00057618116 0.00016394498 -0.0033683747 0.0016182112 -0.0015923344 -0.0023669621
-2.2369184e-06 0.00014059865 4.458996e-05 -0.0013233633 -0.0010431927 0.0011392725 6.210577e-05 -0.0012297101
0.0026099875 -0.0011289424 0.0014377492 0.002434182 -0.0040547005 0.0029401798 -0.002688769 -0.0023858056
0.0030932275 -0.0017528111 0.0016561593 0.0019984585 -0.0018791698 0.0017217334 -0.00020435169 -0.0006739384
0.0040578377 -0.0023677305 0.003564378 0.0029537594 -0.004534084 0.0019574666 -0.00279095 -0.0041140513
0.001963307 -0.0008996187 0.0011183852 0.0023176752 0.0047359355 -0.0030694054 0.0028047701 0.0044048987
-0.0017792633 0.0011655947 -0.0006573212 -0.0016570948 -0.00449171 0.0036931417 -0.0037179193 -0.0035786284
-0.0023967798 0.00060095545 -0.0009161379 -0.0015962783 -0.0020697569 0.0018132247 -0.0015265426 -0.00020949921
0.0011722153 -0.00061497913 0.00077446795 0.000985651 0.0023166626 -0.0017943708 0.0011544002 -0.00032171558
0.003724631 -0.0027546945 0.0035222946 0.0017381978 -0.004747093 0.004090719 -0.004038768 -0.0028764645
-0.002592556 0.0018617111 -0.0017769097 -0.0011125247 0.0037355435 -0.0025799798 0.0034843476 0.0019691396
0.00495891 -0.003601946 0.0045241807 0.0039028837 0.0025665984 -0.00084309437 0.001837709 0.0013696426
-0.0039103776 0.003263068 -0.0029268516 -0.00058954296 0.0043759034 -0.0027561523 0.0036430825 0.003159774
0.0023142586 -0.0008415394 0.0028168254 0.0030099577 0.001468326 -0.00042740337 0.0018094952 0.00092232274
-0.0047112247 0.003257722 -0.0036299177 -0.004504813 0.0041158064 -0.0023734309 0.0025306647 0.003752527
0.0044303583 -0.0036365294 0.003389132 0.002213464 -0.0008312531 2.5021182e-05 -0.0007668732 -0.0025022633
-0.00055474695 0.00079489005 -0.00014703943 0.002182403 0.0028371864 -0.0024400207 0.0021964242 0.003322933
0.0020538012 -0.0009025528 0.0016877975 0.00094546826 -0.0030799438 0.0024631477 -0.0011884366 -0.0019385808
0.004064294 -0.0024461288 0.0032080312 0.0040036333 0.0023386874 0.00063672627 0.0006818467 0.00071081665
-0.0041674664 0.0020548406 -0.0034435936 -0.0018178618 0.0017914452 -0.00030265193 0.0007328984 0.0028841768
0.0019305985 -0.0010032061 0.0002642497 0.0014561627 0.0038315428 -0.0018342697 0.0021837568 0.0033986652

base_model.model.decoder.block.0.layer.1.EncDecAttention.q.lora_A.weight f4 [4, 512]
00000000: c015 08bd 016e 6c3c 432b 32bc 556b ee3c
00000010: 45b4 8a3c abc4 1fbd 1bf2 15bb 607b 06bd
00000020: 6c5a 4b3b 488f 02bd 7ca9 bcbc f005 003d
00000030: db2f d63c 8c44 0dbd 338c 063d 5421 de3c
00000040: c76c 6c3c 762e adbc 39a5 9d3b 33c8 8bbc
00000050: 2e06 c4bc 8fe3 70bc 91f7 0e3d 83ea b53c
00000060: 0c10 d8bc 82a7 1dbc 37fe 5cbb d836 a33b
00000070: af00 533c c496 bbbb bd32 2f3c 2b2b 24bd
00000080: f6a7 ad3b c0aa 363a 49d8 c13c 5379 edbc
00000090: 555b 28bc 686e b03c 4f18 153d 891d 0fbd
000000a0: f4c5 e03c 1272 fe3c 389b 1f3d 1454 67bc
000000b0: 7f15 1e3d 44ea 053d f46f b6bb 1c40 cc3c
000000c0: b743 23bc 1b06 bb3c 25e4 ac3c c9cf 10bb
000000d0: 672c 023d 79a2 de3c 5a8d ed38 849d 4b3b
000000e0: db69 2c3d 6e97 e33c 33ba 033b 9d2e f13c
000000f0: 4a6e 213c 44f0 30bc fae0 9c3c bafb e53c
00000100: 10a0 15bd 0b75 ce3b 655b dabb a358 96bb
00000110: 674f e83c ceb3 8c3c f06b a6bc 651a 8c3c
00000120: 2ac4 b63c 6295 a7bc 64b6 d6bc c1ac b4bc
00000130: 7fe5 5c3b afe9 9a3c e2fb e2bb 6cea d5bc
00000140: 8294 c13c b1cb dd3c 031e 1a3d dd84 76bc
00000150: 9a6b efbc f6a1 25bd add7 4939 fc48 18bd
00000160: e1ab 433d 0cdd 9bbc 1443 d93c 7627 19bd
00000170: 3bb0 343d 8769 193d 633d 973c 9a4e a4bb
00000180: 6067 dc3c c1b8 633c ac70 13bd 0b7b cabc
00000190: f371 263d 567e 9f3c 3686 18bd dd95 e33b
000001a0: f25f 203c 7a20 94ba 39e1 1e3d 678d 38bc
000001b0: 4d3a f8bc 1320 4d3c d899 9abc 1124 ba3c
000001c0: 4aa6 32bc 9acc 8cbc 2875 083c d68e 873c
000001d0: b907 e8bb e4a1 ccbc 63de c0bc c6fc c23c
000001e0: 3fd7 eabc 4977 113d 8246 fe3c 381e 27bc
000001f0: 1ca7 36ba 1648 913c 3b75 353d ee0a bf3c
00000200: 6653 9ebc c8e8 963c 15eb a0bc c960 84bc
00000210: 9793 b03c 57ff 843c e942 313d 22a8 c3bc
00000220: e2d5 2dbc 2e30 943c dc56 a5bc fde4 203d
00000230: fe2d 82bb bfa1 22bd ee20 96bc f990 26bd
00000240: 1a06 9d3c 9ad7 8ebc 8f2c b3bc 3fba 8fbb
00000250: 6332 14bd 4154 1f3d 4185 20bd 7995 173d
00000260: 091a 1dbd e4e7 acbc f8b0 e1bc e746 433c
00000270: 721f 71bb cb23 f4bc d6ba a73b 685b 203c
00000280: a5bb 10bc bcef 023d e304 993c 6d64 3dbc
00000290: dbb4 253d f1a7 16bd 3a94 363d bf21 943c
000002a0: 3672 b33c a767 b4bc 3207 9339 430d 003c
000002b0: 39e9 b7bc cf37 e73b 2ca4 f63b abcf 043d
000002c0: e787 13bd bbed 263c d434 bfbb c58b 043c
000002d0: 08ac 2cbd 4da9 1abd 8dc0 153d b654 883c
000002e0: 7469 c6bc ef8e 18bc acbb 2c3d b567 213d
000002f0: a35f 073d c2a0 7f3c 8928 cbbc c5a1 1a3d
00000300: 82ff 2bbd 0534 4a3c efa6 193b cbbf 81bc
00000310: 15d3 333d 919f c4bc e31f cabc 4fd4 f2bc
00000320: 1d3e ec3c 0931 2b3c 3a46 b7bb 7570 eb3b
00000330: ae9d efbc 318a 6abc f8fd 18bc ea1a 413d
00000340: edee 28bb 33ed b0bb 626d 05bd 49ed 6a3c
00000350: b16c 2fbd a8a9 eb3c 3311 013d 4a49 d93c
00000360: 6030 ab3c 9897 8b3b 5e3e 02bd f27f fb3c
00000370: b6f1 56bb a373 0e3d 87f8 61bc 95e8 27bd
00000380: dad7 10bd 02ef af3b 9e9b 23bd 9b40 103d
00000390: 7106 b9bc 0c62 b9b9 e33a 763b 95de 0a3d
000003a0: e0a0 7e3c 1c08 b13b 5c6e 5c3c 16f1 c43c
000003b0: 9599 93bb 5c87 25bd 6742 03bd 50c0 c23c
000003c0: 6e48 9f3b 94b2 0c3d ca28 1a3d 5290 23bd
000003d0: 7bbe 1bbc 1fe7 083d 62bf cb3c d79e 033d
000003e0: c311 8c3c 8ce2 0f3d 1eef e2b7 70be e1bc
000003f0: cf4d f8bb 6044 07ba 1fa5 b7bc a776 a3bc
-0.033223867 0.014430524 -0.010874572 0.029103914 0.016931662 -0.039005917 -0.0022879902 -0.032832503
0.0031029237 -0.031874925 -0.023030035 0.031255662 0.026145866 -0.0344892 0.03284855 0.027115501
0.014430231 -0.021140318 0.004810956 -0.017063236 -0.023928728 -0.014702692 0.034904066 0.02220655
-0.02637484 -0.0096224565 -0.003372086 0.004980903 0.012878581 -0.00572476 0.010693249 -0.04008023
0.0052995635 0.0006968193 0.023662703 -0.028988516 -0.0102756815 0.02153702 0.036400136 -0.034940276
0.027438141 0.031060252 0.038966388 -0.014119167 0.03859472 0.032694116 -0.005567545 0.024932913
-0.009964875 0.02283006 0.021104882 -0.0022096506 0.031780627 0.027177082 0.000113273694 0.0031069228
0.04209314 0.027782168 0.0020099997 0.029441172 0.009852955 -0.010799471 0.019150246 0.028074134
-0.0365296 0.0063005737 -0.006663727 -0.004588203 0.028358174 0.017175581 -0.02031514 0.01710243
0.022310335 -0.020456973 -0.026210018 -0.022055032 0.0033706126 0.018910257 -0.0069269994 -0.026112758
0.023630384 0.027074667 0.037626278 -0.0150463255 -0.029226113 -0.04043766 0.00019249199 -0.03717898
0.04777134 -0.019026302 0.026521243 -0.03739115 0.04411338 0.037454154 0.018461889 -0.005014253
0.026904762 0.013899029 -0.035996124 -0.024716875 0.040636014 0.019469421 -0.03723737 0.0069453553
0.0097885 -0.0011301183 0.038789008 -0.011264182 -0.030301237 0.012519854 -0.018872187 0.022722276
-0.010903904 -0.017187405 0.0083287135 0.016547602 -0.0070809987 -0.02497954 -0.023543542 0.023802172
-0.02866709 0.03551415 0.03103948 -0.010200076 -0.000696765 0.017734569 0.044301253 0.023320641
-0.019326877 0.018421546 -0.019643346 -0.016159432 0.021554751 0.016235037 0.0432767 -0.023883883
-0.010610076 0.01808938 -0.02018302 0.03928088 -0.003972768 -0.039705034 -0.018326249 -0.0406656
0.019167949 -0.017436791 -0.021871833 -0.004386216 -0.036180865 0.03889871 -0.03918958 0.037007783
-0.038354907 -0.021106668 -0.027550206 0.01191876 -0.0036792425 -0.029802224 0.005118708 0.009787418
-0.0088338 0.03196691 0.018679088 -0.011559588 0.04045568 -0.036781255 0.044574954 0.018082498
0.021905046 -0.022022082 0.00028043386 0.007815662 -0.022450076 0.0070562134 0.007526895 0.03242461
-0.03601828 0.010188515 -0.005835155 0.008089964 -0.04215625 -0.037759114 0.036560584 0.016641956
-0.024220206 -0.009311422 0.042171165 0.039405543 0.03305019 0.0156022925 -0.024799602 0.03775193
-0.041991718 0.012341504 0.0023445447 -0.015838524 0.043902475 -0.024001868 -0.024673408 -0.029642252
0.028838212 0.010448703 -0.0055930885 0.007185037 -0.029249992 -0.014315174 -0.009337895 0.047144808
-0.0025777176 -0.00539937 -0.03257502 0.0143388 -0.042828266 0.028767422 0.031510543 0.026524205
0.02089709 0.0042600147 -0.03179776 0.030700658 -0.003279788 0.03477825 -0.013792164 -0.040993292
-0.035362102 0.005369068 -0.03994333 0.035217863 -0.02258608 -0.00035359 0.003757172 0.033903677
0.015541285 0.005402578 0.013454046 0.02404074 -0.0045043924 -0.040412292 -0.032045748 0.023773342
0.004860929 0.034349993 0.037636556 -0.039932556 -0.009505863 0.03342354 0.024871532 0.032133903
0.017098313 0.03512816 -2.7052647e-05 -0.027556628 -0.007577635 -0.000516003 -0.022417603 -0.019954039

base_model.model.decoder.block.0.layer.1.EncDecAttention.q.lora_B.weight f4 [384, 4]
00000000: 6b75 efb9 77cf 393a 823e c038 535b 8f3a
00000010: ab82 f6ba 4d7d c33a db26 39b9 bef2 be3a
00000020: 1728 f239 c9be 1fb9 74ad 3a39 0d8c fdb8
00000030: 6894 28bb 1bdb 3c3b d25c d838 ce45 353a
00000040: 4260 38ba 46b9 183a 6e55 6539 4d95 1d37
00000050: c743 f939 4565 b2ba e631 3039 cb91 9bb9
00000060: 2c92 e53a fa02 03ba 1861 a6ba 67f3 9cba
00000070: 6a73 fb3a 0bf0 8aba 0aa4 dfb9 bb3d 3bba
00000080: 0e82 043b fe5f 88ba 2b08 8dba df30 dfba
00000090: f034 ef3a aae2 1ebb 4fdc 893a f0b4 b6b8
000000a0: 87ed 8aba 7239 263a 3cd0 e038 315b 90b9
000000b0: 1c57 26bb 9d31 003b b7a0 8539 1a30 8a3a
000000c0: d9ce 32bb 058f 513b 2288 4339 6798 9a3a
000000d0: 5a2c 2b3a 8b24 88b9 4d32 0c3a dc74 8839
000000e0: 3c2f 4aba d1d0 853a bed2 73ba f11b 2239
000000f0: 105b c9ba eccc c63a 7db3 86ba a9ac f5b9
00000100: 1dce 7ab9 5d75 f3b9 1e6d 403a 9bbd 0d3a
00000110: 35b5 87ba 90ab 2f3a b8ed a63a 56a4 eb3a
00000120: 382f 473b d740 d3ba effb bab9 f14b 90ba
00000130: 11d5 0dbb b1ae a53a ded5 7939 ea57 113a
00000140: 0ed3 723b ef44 46bb 975b a8ba fd17 3ebb
00000150: a5af 9bb8 244c b9ba d79d 6ab9 6730 cf39
00000160: cb43 4e3b 2f31 26bb 88f7 11ba f0e4 a7ba
00000170: d95f 593a 86a4 abba 8124 0437 b7d6 3ab9
00000180: 490e 373a 5fc2 94ba c882 b13a 8060 b039
00000190: e823 1fba 6f6e 973a 5754 8839 d49c e1b9
000001a0: 13b7 faba a8a0 9a3a 284f a8b9 be2b 3d39
000001b0: dd99 97ba ffb7 d43a ca5c 81b9 4865 ed3a
000001c0: 65e3 4e39 1a16 443a 6963 843a fe20 89b9
000001d0: b2bf c7ba 11f6 063a dc0a 1db9 e746 9539
000001e0: f946 483a e362 3dba d496 b0b9 5244 80ba
000001f0: 85cc 8439 5dd3 94b8 646c f7ba ea73 d0b9
00000200: e58c 993a 7e22 c6ba 43fc 49ba 36ed 72ba
00000210: c99b 8b39 e067 35ba ac04 5e3a 27f1 1aba
00000220: 65df 313a 9180 56ba bce4 b239 2cb9 c539
00000230: ebf2 0c3a e945 74ba 038c 13b9 faef 6fba
00000240: 1289 383b f844 35bb f1ac 82ba 4923 ceba
00000250: 68ce 423b 267a 2ebb 6db4 8b37 30c2 f6b9
00000260: a55f 26bb 7f5e 243b ad10 913a 1bf8 163b
00000270: c8df e4b9 ae08 ef39 2617 153a 8265 8c3a
00000280: a709 2fba 6d49 013a 9119 2a39 f530 b03a
00000290: bac4 0dba 4417 5339 3029 95ba 148a 8fba
000002a0: 9134 4bba 587f 963a c651 9bb9 a86b df38
000002b0: c3bf 3e3a f77a e7b9 f8fb 14ba 4e07 b3ba
000002c0: b328 6fba 8b18 343a 6d02 d0ba c808 5838
000002d0: d30d f0b9 bdd8 abb9 cc27 9db9 4d28 31ba
000002e0: 6a4e e838 0e58 133a acb2 183a a17d c33a
000002f0: 314b b6ba 6eaf 333a a7d8 8e39 7a72 6f3a
00000300: ad2f 393b d4fc 22bb 06d9 1738 2b81 64ba
00000310: 091a e6ba 83dc b73a 51ad 5cb8 8368 813a
00000320: a75b 45ba 9236 a93a 0a39 5d3a aa3b 203a
00000330: fc94 f5ba b838 b93a 8bbf 493a 8dab b337
00000340: 2c84 d6b8 1bdd 573a 0832 59ba ba27 82ba
00000350: cd8b 5eba d734 d439 60a1 6cba bc61 ce39
00000360: 6f51 713b eec3 30bb ae05 6fba b3f9 10bb
00000370: befe c639 67b0 c439 045a 81ba 666d 1aba
00000380: 0f9a 13bb 9d70 c73a e02b bb3a 589b d53a
00000390: 5504 ecb9 ce08 35ba 5a1c 74ba d69a 1bba
000003a0: cc9a 3e3a bccf 66ba 736a 403a 1243 9c39
000003b0: 047f 10ba d4ca 55ba fa43 dab9 3f47 30ba
000003c0: 7a15 9eb9 04c1 c7b9 1424 a139 1d11 6eba
000003d0: 1405 89b9 cab5 56ba d88b f6b9 bd9e 7cba
000003e0: c664 9b3a cd2e 45b9 3e81 48ba 3d67 96ba
000003f0: 4ff8 0cbb d4a0 023b 8d7f beb9 323c e2b9
-0.00045673116 0.00070881046 9.1669164e-05 0.0010937251 -0.0018807253 0.0014914662 -0.0001765745 0.0014568192
0.00046187706 -0.00015234495 0.00017802959 -0.000120900666 -0.0025723223 0.002881712 0.00010316972 0.0006915004
-0.00070333865 0.0005825948 0.00021870967 9.392691e-06 0.0004754348 -0.0013610503 0.00016803257 -0.00029672528
0.0017514876 -0.0004997697 -0.0012693731 -0.0011974395 0.0019184176 -0.0010600103 -0.00042656093 -0.00071426824
0.002021912 -0.0010404584 -0.001075988 -0.0017028115 0.001825003 -0.002424399 0.0010517928 -8.7121385e-05
-0.0010599353 0.00063409575 0.00010719939 -0.00027533763 -0.002538151 0.0019560822 0.0002548748 0.00105429
-0.0027283935 0.0031976115 0.00018647363 0.0011794687 0.0006529741 -0.00025967168 0.00053480716 0.00026027008
-0.0007712727 0.0010209327 -0.00093011174 0.00015459933 -0.0015362222 0.0015167273 -0.001027688 -0.00046858683
-0.00023918641 -0.00046436014 0.00073404785 0.00054069766 -0.0010353687 0.0006701285 0.0012735641 0.0017978053
0.0030393135 -0.0016117346 -0.0003566439 -0.001100896 -0.002164189 0.0012640563 0.00023826162 0.0005544411
0.0037052068 -0.003025349 -0.0012844679 -0.0029005997 -7.423692e-05 -0.0014137072 -0.00022374779 0.0003951818
0.0031473513 -0.0025358906 -0.0005568196 -0.0012809318 0.00082921755 -0.0013095296 7.876312e-06 -0.0001781833
0.00069830247 -0.0011349431 0.0013543004 0.00033641234 -0.0006070719 0.0011553298 0.0002600278 -0.0004303219
-0.0019128047 0.0011797147 -0.00032102433 0.0001804074 -0.001156624 0.0016229152 -0.0002467393 0.0018111849
0.00019730402 0.00074801 0.0010100427 -0.00026155257 -0.0015239625 0.0005148361 -0.00014976732 0.0002847232
0.000763997 -0.0007224513 -0.00033681712 -0.0009785986 0.0002532938 -7.0965594e-05 -0.0018876907 -0.00039759214
0.0011714963 -0.0015116481 -0.00077051314 -0.00092669146 0.00026628215 -0.00069200806 0.0008469324 -0.0005910568
0.00067853025 -0.000818261 0.00034121226 0.00037712732 0.0005376774 -0.0009318279 -0.00014071171 -0.0009152886
0.0028157872 -0.0027659517 -0.0009969753 -0.0015727069 0.0029725078 -0.00266231 1.6654109e-05 -0.00047065457
-0.0025386598 0.0025080738 0.0011067592 0.0023036066 -0.0004365428 0.000455921 0.00056873483 0.0010711404
-0.00066771585 0.0004931901 0.00016221988 0.0013442325 -0.00054080377 0.00020131195 -0.0011380073 -0.0010951185
-0.00077516685 0.0011482043 -0.0002962483 0.00010653521 0.00072764995 -0.0004415137 -0.0005683298 -0.0013658793
-0.0009123191 0.0006870112 -0.0015869864 5.150659e-05 -0.00045786667 -0.00032777144 -0.00029975025 -0.00067580194
0.00011077228 0.0005620726 0.0005824964 0.001491476 -0.0013907907 0.0006854449 0.0002724577 0.0009134185
0.0028257177 -0.0024869936 3.6203324e-05 -0.00087167573 -0.0017555367 0.001402751 -5.26135e-05 0.0009873066
-0.0007528611 0.001290994 0.00084389804 0.0006112406 -0.0018736417 0.0014131283 0.00076960836 2.1418347e-05
-0.00010228934 0.00082345464 -0.00082853483 -0.0009930052 -0.000848946 0.0004047516 -0.00090267323 0.000393642
0.003682222 -0.0026972252 -0.0009117973 -0.0022121489 0.000379553 0.00037515463 -0.0009868746 -0.00058909354
-0.0022522246 0.0015216056 0.0014280044 0.0016296906 -0.00045016655 -0.0006905914 -0.0009312086 -0.0005935853
0.00072709913 -0.00088047585 0.0007340081 0.0002980461 -0.0005512091 -0.0008155529 -0.00041630847 -0.00067244837
-0.0003015211 -0.00038100046 0.00030735193 -0.00090815296 -0.0002613446 -0.0008190541 -0.00047024968 -0.0009636691
0.0011855594 -0.00018804819 -0.0007648653 -0.0011474859 -0.0021510308 0.0019932287 -0.00036334657 -0.00043150928

base_model.model.decoder.block.0.layer.1.EncDecAttention.v.lora_A.weight f4 [4, 512]
00000000: 99b5 e3bb 5c37 213d 7f5c 1f3d e04a 70bc
00000010: 53fa 0d3b e4a9 3dbc 4b9d f5bc bd8e ff3b
00000020: 68b7 083d 30a9 33bd 7939 2c3c 9510 32bd
00000030: 0407 dabc e201 37bd d1d3 353c 9b90 e5bc
00000040: dadc fcbc 2e25 e0bb 1746 22bd 5a00 07bd
00000050: 31b8 d83c 83fe 28bd cbef 103d 8fc3 023d
00000060: 68dc 10bd a69e 1f3d 560d e1bc 6a21 c73c
00000070: cbea 8e3b d929 033d 1744 04bd 1eef 8d3c
00000080: f6ff 97bc 5bec fe3c 861a 9f3b b65a 8f3c
00000090: 4c10 d9bc b663 c4bc aaf4 25bc b768 23bd
000000a0: f564 02bd 46bb 1d3d 5376 263d 4ffc 20bd
000000b0: 77a0 6d3c 2002 b63c bbe5 75bc 8c55 bc3b
000000c0: b070 323d 11f0 22bd 4075 ad3c 93b3 1f3d
000000d0: 8dac 04ba da3d 0fbd d1c4 eebc 7987 07bc
000000e0: bfdb 7b3c 4870 113b 514b 16bd 6335 babb
000000f0: 2683 29bc 79d8 30bd 1c05 d0bc 71d6 31bd
00000100: dc50 7d3b fb4f 04bd 80e5 a53c 772c 763b
00000110: 47d3 79bc a93c 0e3d 014d 40bc decd 94bb
00000120: d4ff ad3c a920 b5bc dd32 eabc 2a3e c23b
00000130: cc49 98bb b3e3 643c 08aa 8fbc fb55 0a3c
00000140: b61c 343d 640a 123d 1ab8 b8bc 8f0d a93b
00000150: 83ff c73c b071 f7bc 2c19 b53c 06a1 d3bc
00000160: bc90 93bc a13b 22bd d8a9 08bd 0009 d13c
00000170: ea58 ecbc e3cf 1ebc 7143 4e3c dba2 ab3c
00000180: 3a43 203d 2ab4 983c 7c36 acbc a610 20bd
00000190: 4283 c83c b152 a0bc b5e0 893c b600 183c
000001a0: 3099 223d ad73 babc fbcc 0bbd 53ca 653c
000001b0: 3a7d e2bc c39d e13c 62cd 043d 4274 1b3d
000001c0: e4cb c63c e1d6 993c ec18 97bc 55dd 1e3d
000001d0: de57 2abd 7f12 95bc 6eb9 c7bb 227d 5b3c
000001e0: 7cd6 5fbc 77ec 99bc e215 d83c 098a 73bc
000001f0: 596c afbc 2a9a 59bc 13d5 77bc 3d5b 7d3c
00000200: dbae 03b9 da48 b6bc f0fe 2abd 04bb 1ebc
00000210: c9be 283b 1f72 b1bc 8479 c5bc eea2 5d3c
00000220: 2c6e 97bc e017 07bd f5dd 513c 52cb 903b
00000230: 68ef 2c3c 194d 063d 7707 f63c d847 333c
00000240: 69d0 2bbd 8e32 de3b 8267 a3bc 35a9 f03c
00000250: d058 20bd 4258 693c d956 30bd 4b53 25bd
00000260: 2f3e 083d 8086 983c b23b acbb 4061 ed3c
00000270: f316 b43b 6751 0bbc 3406 cabc 3c83 f2bc
00000280: 8e3f 83bc c74b f9bc 5bd3 533c dc50 2d3d
00000290: 28d9 203d b32e c13c 018e 0d3c 419d b2bb
000002a0: a9bd c03b d9f1 15bd 91ed e4bc fb7b 1cbc
000002b0: d712 f9bb 35a9 13bd 97a3 29bc 96fd a73b
000002c0: b11c 98bc 0733 60bc 1dd9 95bc 0a65 563b
000002d0: d549 f23c a4f2 023d 2941 73bb 004b 1abd
000002e0: ddca 05bd 8452 053d 07a0 893c 980e d6bb
000002f0: d2a6 f6bc 3cd7 38bd d617 dcbc b1cb 4fbc
00000300: 85d2 5f3c f2a7 283d 288a 4abc 0c7f 823c
00000310: eae4 2e3c 16f5 333d d7c2 e2ba 19e1 a9bc
00000320: 7e01 35bc ce51 1dbd 2882 8bbc 6809 fe3c
00000330: fe7a 833c f4ad b0bc 523b d93c a950 283d
00000340: 89bf 0a3d 5c04 ccbc d356 873c e1ec 193d
00000350: 3dfc 0e3d 9693 7cbc 23ad 2fbd e334 b63b
00000360: bffb 18bd 486e cabc ae17 bf3a be7b 313d
00000370: a231 b53b 6955 16bd 121d 313c 4b8f 003d
00000380: e806 d73c e687 943c 1288 023d f078 2d3d
00000390: 9a62 283d 0b6d 4e3c a725 8dbb a421 313d
000003a0: 483c 11bd e1b0 15bd 3c87 f03c 61ec 45bc
000003b0: 98e9 1dbd 2514 c73b 0d41 27bc 4186 68bc
000003c0: a7c6 0f3d 3b3a 86bc 89d6 1abd c850 c73c
000003d0: ebb0 ac3b caee 143d 5fc4 103d e551 2dbd
000003e0: 72d4 87b9 07d7 efbc d49c 4f3a 6e08 03bd
000003f0: c65a 533c 180d 2cbd a797 463c ab3a 073c
-0.0069491384 0.039359435 0.03890657 -0.014666289 0.0021664097 -0.01157615 -0.02998223 0.007798998
0.033378035 -0.04386252 0.010511749 -0.043472845 -0.026614673 -0.04467953 0.011097864 -0.028023055
-0.030867029 -0.0068403697 -0.039617624 -0.03295932 0.026455017 -0.041258346 0.035384934 0.03192478
-0.035366446 0.03896966 -0.02747218 0.024307925 0.0043614856 0.03202233 -0.032291498 0.017325934
-0.018554669 0.031118562 0.0048554568 0.017499309 -0.026497029 -0.023973327 -0.010129133 -0.039894786
-0.03183456 0.038508676 0.040640187 -0.03930312 0.01450359 0.02221781 -0.015008385 0.0057475027
0.0435645 -0.039779726 0.021174073 0.038989615 -0.00050611125 -0.034971096 -0.029146584 -0.008272045
0.015372216 0.002219217 -0.03669292 -0.0056826337 -0.01034621 -0.043175194 -0.025393061 -0.043417398
0.0038652932 -0.032302838 0.020251036 0.0037563124 -0.015248126 0.03472582 -0.011737109 -0.004541143
0.021240152 -0.0221103 -0.028588707 0.0059278207 -0.004647469 0.013970303 -0.017537132 0.008443351
0.043972693 0.03565444 -0.022548724 0.005159087 0.02441383 -0.030205578 0.02210673 -0.025833618
-0.01801335 -0.039607648 -0.0333651 0.025516987 -0.028850991 -0.009693119 0.0125893215 0.020951679
0.039126612 0.018640596 -0.021022074 -0.039078377 0.024476651 -0.01957068 0.016830781 0.009277513
0.039696872 -0.022760237 -0.03413103 0.014025289 -0.027647603 0.027541047 0.03242243 0.03795267
0.024267145 0.01877922 -0.0184445 0.038785297 -0.041587703 -0.018197296 -0.006095103 0.013396533
-0.013661977 -0.018789513 0.026377622 -0.014864453 -0.021413969 -0.0132813845 -0.015126484 0.015463647
-0.00012558272 -0.022251535 -0.041747034 -0.009688143 0.0025748482 -0.021660862 -0.024105795 0.013527615
-0.018485151 -0.032981753 0.012809266 0.004418769 0.010555126 0.03278837 0.030032856 0.010942422
-0.041946802 0.006780929 -0.019946817 0.02937756 -0.0391472 0.014242234 -0.043051574 -0.040362637
0.033262428 0.018618822 -0.0052561397 0.028977036 0.0054959 -0.008503295 -0.024661161 -0.029603593
-0.016021516 -0.030431641 0.012928809 0.04231344 0.039269596 0.023581838 0.008639813 -0.005450875
0.0058819843 -0.036607597 -0.027945312 -0.009551044 -0.007601123 -0.03605004 -0.010353944 0.0051266653
-0.018568369 -0.013684041 -0.018292004 0.0032714033 0.029576221 0.03196968 -0.0037117696 -0.03766918
-0.03266417 0.032549396 0.01679994 -0.0065325014 -0.030108843 -0.04512714 -0.026866835 -0.012682841
0.013661032 0.04117579 -0.012362041 0.015929721 0.010674695 0.043934904 -0.0017300498 -0.020737218
-0.011047719 -0.038408093 -0.017029837 0.031010345 0.016049858 -0.021567322 0.026517544 0.04109255
0.03387407 -0.024904422 0.016520893 0.03757942 0.034908522 -0.015416047 -0.042889725 0.005560504
-0.03734946 -0.02471079 0.0014579201 0.0433309 0.0055295983 -0.036702547 0.010810154 0.031386655
0.02624841 0.018131208 0.031868048 0.042351663 0.04110966 0.01259924 -0.004307467 0.043244973
-0.03545788 -0.036545638 0.02936136 -0.012080283 -0.03855285 0.0060753995 -0.01020838 -0.014192165
0.03510156 -0.016385188 -0.037802253 0.024330512 0.0052701137 0.03636054 0.035343524 -0.04231443
-0.0002590749 -0.029277338 0.00079197926 -0.03199046 0.01290006 -0.042004675 0.012121118 0.008253734
